…
ed=0, shear=0.0, show=False, show_boxes=True, show_conf=True, show_labels=True, simplify=True, single_cls=False, source=None, split=val, stream_buffer=False, task=detect, time=None, tracker=botsort.yaml, translate=0.1, val=True, verbose=True, vid_stride=1, visualize=False, warmup_bias_lr=0.1, warmup_epochs=3.0, warmup_momentum=0.8, weight_decay=0.0005, workers=8, workspace=None
WARNING ⚠️ no model scale passed. Assuming scale='n'.

                   from  n    params  module                                       arguments                     
  0                  -1  1      5568  ultralytics.nn.modules.conv.Conv             [3, 192, 3, 2]                
  1                  -1  1    664320  ultralytics.nn.modules.conv.Conv             [192, 384, 3, 2]              
  2                  -1  1   2655744  ultralytics.nn.modules.conv.Conv             [384, 768, 3, 2]              
  3                  -1  1         0  torch.nn.modules.upsampling.Upsample         [None, 2, 'nearest']          
  4             [-1, 1]  1         0  ultralytics.nn.modules.conv.Concat           [1]                           
  5                  -1  3   2805504  ultralytics.nn.modules.block.C2f             [1152, 384, 3]                
  6                  -1  1         0  torch.nn.modules.upsampling.Upsample         [None, 2, 'nearest']          
  7             [-1, 0]  1         0  ultralytics.nn.modules.conv.Concat           [1]                           
  8                  -1  3    702336  ultralytics.nn.modules.block.C2f             [576, 192, 3]                 
  9                  -1  1    332160  ultralytics.nn.modules.conv.Conv             [192, 192, 3, 2]              
 10             [-1, 5]  1         0  ultralytics.nn.modules.conv.Concat           [1]                           
 11                  -1  3   2584320  ultralytics.nn.modules.block.C2f             [576, 384, 3]                 
 12                  -1  1   1327872  ultralytics.nn.modules.conv.Conv             [384, 384, 3, 2]              
 13             [-1, 2]  1         0  ultralytics.nn.modules.conv.Concat           [1]                           
 14                  -1  3  10329600  ultralytics.nn.modules.block.C2f             [1152, 768, 3]                
 15         [8, 11, 14]  1   4223854  ultralytics.nn.modules.head.Detect           [10, 16, None, [192, 384, 768]]
YOLOv8_swin summary: 112 layers, 25,631,278 parameters, 25,631,262 gradients, 916.2 GFLOPs

DDP: debug command /home/user-511/miniconda3/envs/SOD_env/bin/python -m torch.distributed.run --nproc_per_node 2 --master_port 60597 /home/user-511/.config/Ultralytics/DDP/_temp_ek67jrbb139779080140544.py
Ultralytics 8.4.21 🚀 Python-3.8.10 torch-2.4.1+cu118 CUDA:0 (Quadro P5000, 15238MiB)
…
